…
/home/xijiexu/miniconda3/envs/cellvta/lib/python3.9/site-packages/torch/functional.py:504: UserWarning: torch.meshgrid: in an upcoming release, it will be required to pass the indexing argument. (Triggered internally at ../aten/src/ATen/native/TensorShape.cpp:3483.)
  return _VF.meshgrid(tensors, **kwargs)  # type: ignore[attr-defined]
=========================================================================================================
Layer (type:depth-idx)                                  Output Shape              Param #
=========================================================================================================
CellViTUNIAdapter                                       [1, 6, 256, 256]          --
UNIAdapterEncoder: 1-1                                [1, 19]                   --
    SpatialPriorModule: 2-1                          [1, 1024, 128, 128]       --
        Sequential: 3-1                             [1, 64, 128, 128]         112,704
        Sequential: 3-2                             [1, 128, 64, 64]          110,976
        Sequential: 3-3                             [1, 256, 32, 32]          443,136
        Sequential: 3-4                             [1, 256, 16, 16]          1,180,672
        Conv2d: 3-5                                 [1, 1024, 128, 128]       66,560
        Conv2d: 3-6                                 [1, 1024, 64, 64]         132,096
        Conv2d: 3-7                                 [1, 1024, 32, 32]         263,168
        Conv2d: 3-8                                 [1, 1024, 16, 16]         263,168
    PatchEmbed: 2-2                                  [1, 16, 16, 1024]         --
        Conv2d: 3-9                                 [1, 1024, 16, 16]         (787,456)
        Identity: 3-10                              [1, 16, 16, 1024]         --
    Dropout: 2-3                                     [1, 257, 1024]            --
    Identity: 2-4                                    [1, 257, 1024]            --
    Identity: 2-5                                    [1, 257, 1024]            --
    Sequential: 2-14                                 --                        (recursive)
        InteractionBlock: 3-11                      [1, 257, 1024]            3,033,216
    Sequential: 2-13                                 --                        (recursive)
        Block: 3-12                                 [1, 256, 1024]            (12,598,272)
        Block: 3-13                                 [1, 256, 1024]            (12,598,272)
        Block: 3-14                                 [1, 256, 1024]            (12,598,272)
        Block: 3-15                                 [1, 256, 1024]            (12,598,272)
        Block: 3-16                                 [1, 256, 1024]            (12,598,272)
        Block: 3-17                                 [1, 256, 1024]            (12,598,272)
    Sequential: 2-14                                 --                        (recursive)
        InteractionBlock: 3-18                      --                        (recursive)
        InteractionBlock: 3-19                      [1, 257, 1024]            3,033,216
    Sequential: 2-13                                 --                        (recursive)
        Block: 3-20                                 [1, 256, 1024]            (12,598,272)
        Block: 3-21                                 [1, 256, 1024]            (12,598,272)
        Block: 3-22                                 [1, 256, 1024]            (12,598,272)
        Block: 3-23                                 [1, 256, 1024]            (12,598,272)
        Block: 3-24                                 [1, 256, 1024]            (12,598,272)
        Block: 3-25                                 [1, 256, 1024]            (12,598,272)
    Sequential: 2-14                                 --                        (recursive)
        InteractionBlock: 3-26                      --                        (recursive)
        InteractionBlock: 3-27                      [1, 257, 1024]            3,033,216
    Sequential: 2-13                                 --                        (recursive)
        Block: 3-28                                 [1, 256, 1024]            (12,598,272)
        Block: 3-29                                 [1, 256, 1024]            (12,598,272)
        Block: 3-30                                 [1, 256, 1024]            (12,598,272)
        Block: 3-31                                 [1, 256, 1024]            (12,598,272)
        Block: 3-32                                 [1, 256, 1024]            (12,598,272)
        Block: 3-33                                 [1, 256, 1024]            (12,598,272)
    Sequential: 2-14                                 --                        (recursive)
        InteractionBlock: 3-34                      --                        (recursive)
        InteractionBlock: 3-35                      [1, 257, 1024]            6,398,784
    Sequential: 2-13                                 --                        (recursive)
        Block: 3-36                                 [1, 256, 1024]            (12,598,272)
        Block: 3-37                                 [1, 256, 1024]            (12,598,272)
        Block: 3-38                                 [1, 256, 1024]            (12,598,272)
        Block: 3-39                                 [1, 256, 1024]            (12,598,272)
        Block: 3-40                                 [1, 256, 1024]            (12,598,272)
        Block: 3-41                                 [1, 256, 1024]            (12,598,272)
    Sequential: 2-14                                 --                        (recursive)
        InteractionBlock: 3-42                      --                        (recursive)
    LayerNorm: 2-15                                  [1, 257, 1024]            2,048
    ConvTranspose2d: 2-16                            [1, 1024, 128, 128]       4,195,328
    BatchNorm2d: 2-17                                [1, 1024, 128, 128]       2,048
    BatchNorm2d: 2-18                                [1, 1024, 64, 64]         2,048
    BatchNorm2d: 2-19                                [1, 1024, 32, 32]         2,048
    BatchNorm2d: 2-20                                [1, 1024, 16, 16]         2,048
    Identity: 2-21                                   [1, 1024]                 --
    Dropout: 2-22                                    [1, 1024]                 --
    Linear: 2-23                                     [1, 19]                   19,475
Sequential: 1-10                                      --                        (recursive)
    Sequential: 2-24                                 [1, 512, 32, 32]          --
        Deconv2DBlock: 3-43                         [1, 512, 32, 32]          4,458,496
Sequential: 1-3                                       [1, 512, 32, 32]          --
    Conv2DBlock: 2-25                                [1, 512, 32, 32]          --
        Sequential: 3-44                            [1, 512, 32, 32]          4,720,128
    Conv2DBlock: 2-26                                [1, 512, 32, 32]          --
        Sequential: 3-45                            [1, 512, 32, 32]          2,360,832
Sequential: 1-10                                      --                        (recursive)
    Sequential: 2-27                                 [1, 256, 64, 64]          --
        Conv2DBlock: 3-46                           [1, 512, 32, 32]          4,720,128
        Conv2DBlock: 3-47                           [1, 512, 32, 32]          2,360,832
        Conv2DBlock: 3-48                           [1, 512, 32, 32]          2,360,832
        ConvTranspose2d: 3-49                       [1, 256, 64, 64]          524,544
Sequential: 1-5                                       [1, 256, 64, 64]          --
    Conv2DBlock: 2-28                                [1, 256, 64, 64]          --
        Sequential: 3-50                            [1, 256, 64, 64]          2,360,064
    Conv2DBlock: 2-29                                [1, 256, 64, 64]          --
        Sequential: 3-51                            [1, 256, 64, 64]          590,592
Sequential: 1-10                                      --                        (recursive)
    Sequential: 2-30                                 [1, 128, 128, 128]        --
        Conv2DBlock: 3-52                           [1, 256, 64, 64]          1,180,416
        Conv2DBlock: 3-53                           [1, 256, 64, 64]          590,592
        ConvTranspose2d: 3-54                       [1, 128, 128, 128]        131,200
Sequential: 1-7                                       [1, 128, 128, 128]        --
    Conv2DBlock: 2-31                                [1, 128, 128, 128]        --
        Sequential: 3-55                            [1, 128, 128, 128]        1,180,032
    Conv2DBlock: 2-32                                [1, 128, 128, 128]        --
        Sequential: 3-56                            [1, 128, 128, 128]        147,840
Sequential: 1-10                                      --                        (recursive)
    Sequential: 2-33                                 [1, 64, 256, 256]         --
        Conv2DBlock: 3-57                           [1, 128, 128, 128]        295,296
        Conv2DBlock: 3-58                           [1, 128, 128, 128]        147,840
        ConvTranspose2d: 3-59                       [1, 64, 256, 256]         32,832
Sequential: 1-9                                       [1, 64, 256, 256]         --
    Conv2DBlock: 2-34                                [1, 32, 256, 256]         --
        Sequential: 3-60                            [1, 32, 256, 256]         960
    Conv2DBlock: 2-35                                [1, 64, 256, 256]         --
        Sequential: 3-61                            [1, 64, 256, 256]         18,624
Sequential: 1-10                                      --                        (recursive)
    Sequential: 2-36                                 [1, 2, 256, 256]          --
        Conv2DBlock: 3-62                           [1, 64, 256, 256]         73,920
        Conv2DBlock: 3-63                           [1, 64, 256, 256]         37,056
        Conv2d: 3-64                                [1, 2, 256, 256]          130
Sequential: 1-19                                      --                        (recursive)
    Sequential: 2-37                                 [1, 512, 32, 32]          --
        Deconv2DBlock: 3-65                         [1, 512, 32, 32]          4,458,496
Sequential: 1-12                                      [1, 512, 32, 32]          (recursive)
    Conv2DBlock: 2-38                                [1, 512, 32, 32]          (recursive)
        Sequential: 3-66                            [1, 512, 32, 32]          (recursive)
    Conv2DBlock: 2-39                                [1, 512, 32, 32]          (recursive)
        Sequential: 3-67                            [1, 512, 32, 32]          (recursive)
Sequential: 1-19                                      --                        (recursive)
    Sequential: 2-40                                 [1, 256, 64, 64]          --
        Conv2DBlock: 3-68                           [1, 512, 32, 32]          4,720,128
        Conv2DBlock: 3-69                           [1, 512, 32, 32]          2,360,832
        Conv2DBlock: 3-70                           [1, 512, 32, 32]          2,360,832
        ConvTranspose2d: 3-71                       [1, 256, 64, 64]          524,544
Sequential: 1-14                                      [1, 256, 64, 64]          (recursive)
    Conv2DBlock: 2-41                                [1, 256, 64, 64]          (recursive)
        Sequential: 3-72                            [1, 256, 64, 64]          (recursive)
    Conv2DBlock: 2-42                                [1, 256, 64, 64]          (recursive)
        Sequential: 3-73                            [1, 256, 64, 64]          (recursive)
Sequential: 1-19                                      --                        (recursive)
    Sequential: 2-43                                 [1, 128, 128, 128]        --
        Conv2DBlock: 3-74                           [1, 256, 64, 64]          1,180,416
        Conv2DBlock: 3-75                           [1, 256, 64, 64]          590,592
        ConvTranspose2d: 3-76                       [1, 128, 128, 128]        131,200
Sequential: 1-16                                      [1, 128, 128, 128]        (recursive)
    Conv2DBlock: 2-44                                [1, 128, 128, 128]        (recursive)
        Sequential: 3-77                            [1, 128, 128, 128]        (recursive)
    Conv2DBlock: 2-45                                [1, 128, 128, 128]        (recursive)
        Sequential: 3-78                            [1, 128, 128, 128]        (recursive)
Sequential: 1-19                                      --                        (recursive)
    Sequential: 2-46                                 [1, 64, 256, 256]         --
        Conv2DBlock: 3-79                           [1, 128, 128, 128]        295,296
        Conv2DBlock: 3-80                           [1, 128, 128, 128]        147,840
        ConvTranspose2d: 3-81                       [1, 64, 256, 256]         32,832
Sequential: 1-18                                      [1, 64, 256, 256]         (recursive)
    Conv2DBlock: 2-47                                [1, 32, 256, 256]         (recursive)
        Sequential: 3-82                            [1, 32, 256, 256]         (recursive)
    Conv2DBlock: 2-48                                [1, 64, 256, 256]         (recursive)
        Sequential: 3-83                            [1, 64, 256, 256]         (recursive)
Sequential: 1-19                                      --                        (recursive)
    Sequential: 2-49                                 [1, 2, 256, 256]          --
        Conv2DBlock: 3-84                           [1, 64, 256, 256]         73,920
        Conv2DBlock: 3-85                           [1, 64, 256, 256]         37,056
        Conv2d: 3-86                                [1, 2, 256, 256]          130
Sequential: 1-28                                      --                        (recursive)
    Sequential: 2-50                                 [1, 512, 32, 32]          --
        Deconv2DBlock: 3-87                         [1, 512, 32, 32]          4,458,496
Sequential: 1-21                                      [1, 512, 32, 32]          (recursive)
    Conv2DBlock: 2-51                                [1, 512, 32, 32]          (recursive)
        Sequential: 3-88                            [1, 512, 32, 32]          (recursive)
    Conv2DBlock: 2-52                                [1, 512, 32, 32]          (recursive)
        Sequential: 3-89                            [1, 512, 32, 32]          (recursive)
Sequential: 1-28                                      --                        (recursive)
    Sequential: 2-53                                 [1, 256, 64, 64]          --
        Conv2DBlock: 3-90                           [1, 512, 32, 32]          4,720,128
        Conv2DBlock: 3-91                           [1, 512, 32, 32]          2,360,832
        Conv2DBlock: 3-92                           [1, 512, 32, 32]          2,360,832
        ConvTranspose2d: 3-93                       [1, 256, 64, 64]          524,544
Sequential: 1-23                                      [1, 256, 64, 64]          (recursive)
    Conv2DBlock: 2-54                                [1, 256, 64, 64]          (recursive)
        Sequential: 3-94                            [1, 256, 64, 64]          (recursive)
    Conv2DBlock: 2-55                                [1, 256, 64, 64]          (recursive)
        Sequential: 3-95                            [1, 256, 64, 64]          (recursive)
Sequential: 1-28                                      --                        (recursive)
    Sequential: 2-56                                 [1, 128, 128, 128]        --
        Conv2DBlock: 3-96                           [1, 256, 64, 64]          1,180,416
        Conv2DBlock: 3-97                           [1, 256, 64, 64]          590,592
        ConvTranspose2d: 3-98                       [1, 128, 128, 128]        131,200
Sequential: 1-25                                      [1, 128, 128, 128]        (recursive)
    Conv2DBlock: 2-57                                [1, 128, 128, 128]        (recursive)
        Sequential: 3-99                            [1, 128, 128, 128]        (recursive)
    Conv2DBlock: 2-58                                [1, 128, 128, 128]        (recursive)
        Sequential: 3-100                           [1, 128, 128, 128]        (recursive)
Sequential: 1-28                                      --                        (recursive)
    Sequential: 2-59                                 [1, 64, 256, 256]         --
        Conv2DBlock: 3-101                          [1, 128, 128, 128]        295,296
        Conv2DBlock: 3-102                          [1, 128, 128, 128]        147,840
        ConvTranspose2d: 3-103                      [1, 64, 256, 256]         32,832
Sequential: 1-27                                      [1, 64, 256, 256]         (recursive)
    Conv2DBlock: 2-60                                [1, 32, 256, 256]         (recursive)
        Sequential: 3-104                           [1, 32, 256, 256]         (recursive)
    Conv2DBlock: 2-61                                [1, 64, 256, 256]         (recursive)
        Sequential: 3-105                           [1, 64, 256, 256]         (recursive)
Sequential: 1-28                                      --                        (recursive)
    Sequential: 2-62                                 [1, 6, 256, 256]          --
        Conv2DBlock: 3-106                          [1, 64, 256, 256]         73,920
        Conv2DBlock: 3-107                          [1, 64, 256, 256]         37,056
        Conv2d: 3-108                               [1, 6, 256, 256]          390
=========================================================================================================
Total params: 397,660,317
Trainable params: 94,514,333
Non-trainable params: 303,145,984
Total mult-adds (G): 333.82
=========================================================================================================
Input size (MB): 0.79
Forward/backward pass size (MB): 4571.67
Params size (MB): 1550.24
…
